notebooks/model_2_trace.onnx (onnx, 776 bytes, 2 tensors)

conv.bias f4 [3]
000000 8e a6 31 bc f1 6e 52 3d 18 32 87 3d
       -0.010842932 0.051375333 0.066013515

conv.weight f4 [3, 3, 3, 3]
000000 b4 c0 51 3d 20 ed f0 bc 48 77 9f ba ec e5 d0 3d
       0.051209167 -0.029409945 -0.0012166286 0.10200104
000010 79 b9 1b be 2a 39 37 bd bd a0 95 3d 53 c1 90 bc
       -0.15207471 -0.04473225 0.07306049 -0.01767031
000020 01 0b 6a 3c 63 c9 0e be 93 66 38 3e c3 87 2a 3d
       0.01428485 -0.1394401 0.18007879 0.04163338
000030 45 74 b9 bd 8b 69 90 bd 50 d8 e1 bd a4 56 06 bd
       -0.0905538 -0.07051381 -0.110275865 -0.03279747
000040 3e e5 66 3d 43 c4 46 3d 8c 73 57 3d a1 a5 43 be
       0.056370966 0.048527014 0.05260043 -0.19106151
000050 f7 33 44 be 23 64 14 be 94 47 71 bd 36 32 06 be
       -0.19160448 -0.14491324 -0.058906153 -0.13105091
000060 db f8 a7 3c c0 b2 51 3d e2 00 40 3d 80 17 0b bd
       0.020504406 0.05119586 0.046875842 -0.03395796
000070 c6 61 b9 bd a8 e4 09 be 77 71 81 3d 8c ab 30 3e
       -0.09051852 -0.13466132 0.0632047 0.1725294
000080 31 be 43 3e 42 98 2d 3e 7e ad 76 3d 1c 10 93 3d
       0.19115521 0.16952613 0.06022405 0.07180807
000090 1f fd c1 bd cf 93 c2 bd aa 4d 78 bd 2d d4 f3 bd
       -0.09472107 -0.095008485 -0.06062094 -0.11905704
0000a0 4f 9b 21 bd 01 d6 ca bd 3c 01 a0 bd 33 2e 8d 3d
       -0.039454754 -0.09904099 -0.078127354 0.068935774
0000b0 68 cf 9c 3c 82 13 2f 3e af 28 13 be 58 f9 36 bd
       0.019141868 0.17097285 -0.14370988 -0.044671386
0000c0 1a ed c5 3d 9c 88 38 be ed 7e b9 3d c0 b1 25 3e
       0.09664364 -0.18020862 0.09057412 0.16181087
0000d0 fc 77 00 3e e7 0c 3d 3e 63 5e 8f 3d b9 ed b4 bd
       0.1254577 0.18461953 0.07000425 -0.088344045
0000e0 13 f7 15 3d ae dc 3f bd af 5a 12 3e 55 4f 1f be
       0.03661258 -0.046841316 0.14292406 -0.15557607
0000f0 94 90 15 be e1 01 3e bd c9 94 b6 bd 3b 9d f8 bd
       -0.14605933 -0.04638851 -0.08915097 -0.12139364
000100 41 ee ba 3d ab f4 b7 3d 47 7d a3 bb 1f c1 04 bd
       0.091274746 0.089822136 -0.0049892995 -0.032410737
000110 f8 59 2b bd d5 1f f0 bb e1 d8 9d 3d 3d b8 15 3d
       -0.041833848 -0.0073280134 0.07707382 0.036552656
000120 94 63 02 be ce 0e 2c be 90 fc fd bc 23 01 8e 3d
       -0.12733299 -0.16802523 -0.03100422 0.069338106
000130 eb 53 36 be 0f 1f 20 3e 43 7c 3d 3e 7c 1d c5 bd
       -0.1780545 0.15636848 0.18504433 -0.09624764
000140 a9 78 36 be
       -0.17819466
