notebooks/model_3_trace.onnx (onnx, 929 bytes, 2 tensors)

conv.bias f4 [3]
00000000: 7ebb abbd 0541 1fbe 3768 33be
-0.08385371 -0.15552147 -0.17520224

conv.weight f4 [3, 3, 3, 3]
00000000: f7f8 e0bd c5a6 afbd 3f20 0abe e55a 3bbc
00000010: a93e 39bd 3774 ff3d c1c5 bdbd 32e3 89bb
00000020: ed51 b1bd 41f6 3cba 7281 d83d 5094 2fbe
00000030: 76db b43d 2984 17be 8c89 a73d 4a02 253e
00000040: 8cce 38be e40e 98bd f215 42be 3b71 abbd
00000050: 35f3 0b3e 1940 2d3e a02e 09be 3b8a 2abe
00000060: 33bc 7b3d 7021 2d3e 925a 6f3b 2266 9a3d
00000070: 62f8 293e fc72 23be 19fc 4abd cddd 933d
00000080: bb15 223e 3e99 44be 74d7 e93d cf6f 43be
00000090: 9e3d 29bd 5008 6abc e952 1d3e d5e4 dbbd
000000a0: 1d48 85bd dbab 253e c174 4d3d 9a54 bbbd
000000b0: 2611 07be 3f8e 413e f4c7 34be 6b09 15be
000000c0: 4c2e f33d 5e04 3abe c659 02be 77cf 933d
000000d0: 02aa 23be 89ee 4e3d 6a6a 3c3e d46a 20bc
000000e0: 3e72 353e 00c4 22be 1ace 8dbc 651b e4bd
000000f0: b9b0 493c 6f6a 663d c4ac a9bd ceb4 013e
00000100: fe94 2e3e 4a52 05be c312 cf3a 4f53 9a3b
00000110: 4975 c1bd 36a0 39bd e889 85bd 7fd9 e73d
00000120: 4e04 38be 5b5f ddbb 73c5 b4bd 6e89 443e
00000130: 414d bf3c ec59 18be 5ef0 64bb 7700 223d
00000140: e956 80bd
-0.10984986 -0.08576731 -0.13488863 -0.011435245 -0.045225773 0.12473338 -0.09266234 -0.004207992
-0.08658204 -0.00072083256 0.10571565 -0.1714642 0.08830921 -0.14796509 0.08180532 0.16114154
-0.18047541 -0.07424715 -0.18953684 -0.083712064 0.13666995 0.16918983 -0.13396692 -0.16654293
0.061458778 0.16907287 0.003652249 0.075390115 0.16598657 -0.15961832 -0.049556825 0.072200395
0.15828602 -0.19199082 0.114180475 -0.1908562 -0.04131853 -0.014284208 0.15363659 -0.107370056
-0.06507895 0.16178839 0.050160173 -0.09146996 -0.13190135 0.18901919 -0.17654401 -0.14554374
0.11874065 -0.18165728 -0.12729558 0.07217305 -0.15982822 0.050520454 0.18399969 -0.009791095
0.17719361 -0.1589508 -0.017310191 -0.111380376 0.0123102 0.056253847 -0.082849056 0.12666628
0.17049024 -0.13019672 0.0015798438 0.004709638 -0.094461985 -0.045318805 -0.06520444 0.11320781
-0.17970392 -0.006755752 -0.08826723 0.1919305 0.023352267 -0.14878052 -0.003493331 0.039551225
-0.06266577
