notebooks/simple_model_traced.pt (torch, 7628 bytes, 2 tensors)

weight f4 [16, 1, 3, 3]
0.24189238 0.2343992 -0.32768488 0.1303188 0.027746996 0.0924625 -0.16374919 -0.32690096
-0.22847626 -0.06510341 0.010249059 0.3027674 -0.19697306 -0.17226028 0.005797784 -0.30355927
0.20703027 0.11420771 0.29826814 -0.31009457 -0.11884117 -0.19070816 -0.25121236 -0.022875667
-0.022630215 0.036299706 0.31575474 0.02782178 -0.30176088 -0.10203874 -0.26085132 0.13071442
-0.26759827 0.08659892 0.32016408 -0.20266287 -0.05142188 -0.3250724 0.029293656 0.33217198
0.1699537 0.24742758 -0.31272262 -0.27398545 0.32187068 0.022922318 0.03326893 -0.22033247
-0.30742046 0.18868487 -0.05502669 -0.14804153 -0.29581293 -0.08407696 -0.15710399 0.20976087
-0.17116086 0.1708554 0.2886989 -0.14097027 -0.013572614 0.07548499 -0.01564908 0.26196277
-0.16618785 0.2651565 0.21153629 -0.1676439 0.27395865 -0.15507337 -0.29981884 0.05230069
-0.12931299 -2.6027363e-05 -0.22941236 0.046477597 0.017667294 -0.08006152 -0.11829178 -0.074522816
-0.30527216 0.14762187 0.10022235 -0.08193418 0.16938798 0.2691704 0.05426101 0.04889357
0.25271606 -0.16763684 -0.2372129 0.3293974 0.10749587 0.058730923 -0.16764891 0.22735417
-0.15999131 -0.26070982 -0.0048906407 -0.305211 -0.1932219 0.33204588 0.0749803 0.02857252
0.05525156 0.25456282 -0.033519864 -0.31282473 -0.19507198 0.016105931 0.057207704 0.32670623
-0.040469766 -0.24126777 0.17904234 0.105198145 0.33029777 0.19940004 -0.14136295 -0.29973146
-0.14359593 -0.062036157 0.2621717 0.06434381 -0.11279007 0.2478898 0.17965838 -0.11384555
0.06638348 -0.1663094 0.1549178 -0.13893573 -0.001749595 0.19421253 0.21431713 0.19689064
0.2248745 0.14335391 -0.21105473 -0.18487696 -0.13448223 0.23624098 0.29675925 -0.017786225
00000000: a3b2 773e 5806 703e 50c6 a7be 4b72 053e
00000010: ab4d e33c fb5c bd3d dead 27be 905f a7be
00000020: aef5 69be f054 85bd abeb 273c 5404 9b3e
00000030: 4eb3 49be 0065 30be 56fb bd3b 1f6c 9bbe
00000040: beff 533e bbe5 e93d 9ab6 983e b7c4 9ebe
00000050: 0063 f3bd 0049 43be e89e 80be c065 bbbc
00000060: 0063 b9bc 00af 143d 9baa a13e 80ea e33c
00000070: 6780 9abe b0f9 d0bd 4e8e 85be 00da 053e
00000080: a402 89be c65a b13d 8cec a33e db86 4fbe
00000090: c09f 52bd e46f a6be 40f9 ef3c 7212 aa3e
000000a0: 5808 2e3e a85d 7d3e 2e1d a0be d247 8cbe
000000b0: 3ccc a43e 96c7 bb3c 0045 083d d69e 61be
000000c0: 3766 9dbe 9b36 413e ab63 61bd 3398 17be
000000d0: cb74 97be 8b30 acbd dedf 20be 8ecb 563e
000000e0: cb44 2fbe b8f4 2e3e 58d0 933e 835a 10be
000000f0: ab5f 5ebc e097 9a3d 8032 80bc fc1f 863e
00000100: 262d 2abe 98c2 873e f89c 583e d8aa 2bbe
00000110: 4f44 8c3e 8ecb 1ebe db81 99be 4039 563d
00000120: a06a 04be 5655 dab7 13eb 6abe 4b5f 3e3d
00000130: 00bb 903c 4bf7 a3bd f642 f2bd 6b9f 98bd
00000140: a24c 9cbe 302a 173e 6041 cd3d 1bcd a7bd
00000150: 0b74 2d3e b4d0 893e cb40 5e3d a044 483d
00000160: 0064 813e fea8 2bbe f0e7 72be c7a6 a83e
00000170: cb26 dc3d d68f 703d 28ac 2bbe 88cf 683e
00000180: c3d4 23be c27b 85be ab41 a0bb 9e44 9cbe
00000190: f6db 45be eb01 aa3e 468f 993d eb10 ea3c
000001a0: 764f 623d 0f56 823e 204c 09bd 902a a0be
000001b0: f3c0 47be 96f0 833c a052 6a3d 0a46 a73e
000001c0: a0c3 25bd e60e 77be e056 373e 2072 d73d
000001d0: ca1c a93e 862f 4c3e 73c1 10be 6776 99be
000001e0: d00a 13be a019 7ebd 5e3b 863e b0c6 833d
000001f0: 7bfe e6bd d3d6 7d3e 5ef8 373e db27 e9bd
00000200: 10f4 873d 034d 2abe c6a2 1e3e 2b45 0ebe
00000210: ab52 e5ba a6df 463e f375 5b3e b39d 493e
00000220: 8045 663e 5ecb 123e bb1e 58be 6350 3dbe
00000230: b6b5 09be 28e9 713e d4f0 973e 6bb4 91bc

bias f4 [16]
-0.28321427 0.04974894 -0.2755803 0.1656029 -0.22869885 -0.29129145 0.30768913 -0.2253817
0.19507027 -0.18945739 0.06609325 0.21684632 -0.19736633 -0.113642536 0.042033873 0.22551748
00000000: 7601 91be 8bc5 4b3d dc18 8dbe ce93 293e
00000010: 0830 6abe 2724 95be 6e89 9d3e 76ca 66be
00000020: 80c0 473e 1e01 42be e65b 873d f60c 5e3e
00000030: 661a 4abe 6bbd e8bd b62b 2c3d 0eee 663e
